.config/google-chrome-unstable/OptimizationGuidePredictionModels/OPTIMIZATION_TARGET_PAGE_ENTITIES_1641316374612/model.tflite (tflite, 407728 bytes, 166 tensors)

sequential_2/dense_6/BiasAdd/ReadVariableOp/resource f4 [8]
000000 2a 5a a8 bd 83 b2 38 be 57 8d 52 3e a4 61 23 bb
       -0.082203224 -0.18036847 0.2056173 -0.0024930025
000010 4f 07 34 bd 78 24 64 3d a0 4e 81 3d de 6a 12 3e
       -0.043952283 0.05569884 0.06313825 0.14298579

sequential_1/dense_4/BiasAdd/ReadVariableOp/resource f4 [32]
000000 d6 c5 34 3e 79 a9 1f be 4e c6 ba bd a4 02 1f 3e
       0.17653593 -0.15591992 -0.09119855 0.15528351
000010 96 c0 97 3e 4c 93 b9 bd 07 71 d9 bc 4e 93 19 bd
       0.2963912 -0.09061298 -0.026543153 -0.037493996
000020 ec a8 ba bd 22 72 c7 bd 8c 38 c5 3e 7d 44 47 be
       -0.091142505 -0.09738566 0.38519704 -0.1945972
000030 81 e7 84 3d e8 e8 27 bb f9 aa 47 bd 8c fe 32 be
       0.06489468 -0.0025621 -0.048747037 -0.17479914
000040 9e a0 56 be fc c7 19 be df c9 56 3d 97 7a 04 3d
       -0.20959708 -0.15017694 0.052438613 0.032343473
000050 a4 e2 41 be 1d cc fa 3a 27 66 0d be 52 87 07 bd
       -0.18934113 0.0019134317 -0.138085 -0.033088036
000060 22 92 d5 bd d9 94 1a be 25 61 fe bd 03 0a c5 bd
       -0.10428263 -0.15095843 -0.124208726 -0.0962105
000070 22 c6 45 3e 35 0d 65 3d fe 85 d4 3e b0 f9 0e be
       0.19313863 0.0559208 0.41508478 -0.13962436

sequential_1/dense_3/BiasAdd/ReadVariableOp/resource f4 [32]
000000 02 87 75 ba b4 2e 0a 3e fb 34 d8 3c 34 00 11 bd
       -0.0009366126 0.13494378 0.02639245 -0.035400584
000010 3e 03 c0 3d 1f 44 3d bd 0e d6 7c 3c 1d 84 2d 3d
       0.093756184 -0.046207543 0.015431894 0.04236232
000020 7b 2d 09 3c 07 c3 fe 3d af cd 4d bd eb a1 f0 3c
       0.00837266 0.12439542 -0.050244983 0.029374084
000030 87 1b 95 bd e0 64 0e 3d 66 64 54 bc fd 95 8f 3d
       -0.07280641 0.03476417 -0.01296339 0.0701103
000040 cc 8c f8 3d 84 4b 46 3d ad 5f 13 3e eb 59 3d 3d
       0.1213623 0.04841186 0.14391966 0.04622833
000050 94 75 be 3d 2c 84 1b 3d 79 26 90 bb 11 6e f6 bd
       0.0929977 0.037967846 -0.0043991175 -0.12032712
000060 65 bc 24 3e fe 25 1c 3e 85 18 9d 3d 14 d1 b1 bd
       0.16087492 0.15248868 0.07670692 -0.086824566
000070 09 c2 ee bc 7a da 1c 3e 0d 2b 9d 3d cb fd 31 3e
       -0.029145258 0.15317717 0.07674227 0.1738197

sequential_1/dense_2/BiasAdd/ReadVariableOp/resource f4 [48]
000000 a1 23 61 3d b6 d4 bc 3d 54 d0 40 be 38 71 cf be
       0.05496562 0.09220259 -0.18829471 -0.40516067
000010 c9 eb f7 be b3 84 f3 3c 9e ee 1f 3d 5f 54 eb 3d
       -0.48422077 0.029726362 0.039045922 0.11490702
000020 4e a3 63 3e a1 6c e3 bd 5f d1 6c 3e 3e b7 ff bd
       0.22230265 -0.11104704 0.23126744 -0.124861225
000030 14 10 3e be 7c a5 1f 3e 1f 08 61 bc 18 6c 01 3e
       -0.18560821 0.15590471 -0.013734846 0.1263889
000040 9b 6e f1 3d 60 68 0e 3e af 3a 4d 3e 9c c6 64 be
       0.117886744 0.13907003 0.20041917 -0.22341388
000050 5e 68 17 3d 92 aa 83 3e a5 b3 72 bd 91 b3 d1 bb
       0.036964767 0.25716072 -0.059253354 -0.00639958
000060 4c 32 4b 3e ba ca 14 3c c5 6f 08 3e 4e 48 b8 3d
       0.19843405 0.009081537 0.13323887 0.08998166
000070 c5 75 d7 bd c9 bf 0e 3e 6a 30 ab 3c 68 03 a1 3d
       -0.1052051 0.13940348 0.020897109 0.07861978
000080 ac 50 4d 3e 95 15 bf 3c 48 0c d1 bd 6c 2a 37 bc
       0.20050305 0.02332572 -0.102074206 -0.011179548
000090 b5 3b 64 be 00 11 ee 3d 96 2a a3 3d e7 08 9e 3d
       -0.22288401 0.11624336 0.07967107 0.07716542
0000a0 ee 17 9c bd 3b 54 6b 3e f0 df 8a bd d6 c0 0c 3d
       -0.07621752 0.2298135 -0.06780994 0.03436359
0000b0 a5 b4 e0 bc c3 fa f5 3d c2 2d 56 3e b6 18 5d 3e
       -0.027429888 0.120107196 0.20915893 0.21591458

mention_transformer_1/ffn_layer_3/output_dense/add/ReadVariableOp/resource f4 [32]
000000 4a 78 ed 3b 31 41 46 3d 85 a0 ca bc 2a bd d9 bb
       0.0072470056 0.048402015 -0.024734745 -0.0066448646
000010 ee 84 9a 3d 67 5a fd bc 44 5f fb bc 9c 03 e6 bc
       0.075448856 -0.030926896 -0.030685075 -0.028077893
000020 57 36 1c 3d ee e0 24 be 7d 72 26 bd 14 82 9e 3d
       0.03813776 -0.16101429 -0.04063653 0.07739654
000030 e5 a0 db ba ce a5 10 bd b0 70 b1 bc dc 90 e8 bc
       -0.0016756324 -0.035314374 -0.021660179 -0.028389387
000040 82 7b 60 bd 78 16 59 3d 53 47 8c 3c da 5d 07 3d
       -0.054805286 0.052999943 0.017123854 0.03304849
000050 00 98 8a 3c 18 eb 2b 3d b8 f8 f3 3a 23 ef e0 3c
       0.016918182 0.04197225 0.0018613553 0.02745778
000060 63 d1 f9 ba 2b c6 bf bd 8a da b8 bc b5 1d 6e bd
       -0.0019059594 -0.093639694 -0.022565145 -0.0581338
000070 ec 84 4c 3b d1 49 31 3d 38 db a8 bc 8a 49 76 bd
       0.0031207157 0.043283287 -0.020612344 -0.060128726

mention_transformer_1/ffn_layer_2/output_dense/add/ReadVariableOp/resource f4 [32]
000000 b1 0e 79 3c 8b 6f b7 bd 95 07 8a 3c 75 58 f3 3d
       0.015201257 -0.08956822 0.016849319 0.11882106
000010 40 12 04 3d dd 31 26 bd 8a b1 f4 bc a0 06 18 3b
       0.032243967 -0.040574897 -0.029869813 0.0023197308
000020 6c 9d 9d 3d 4c f4 38 bd 6e 81 e6 bd 69 96 46 bd
       0.076960415 -0.045154855 -0.112551555 -0.048483286
000030 d8 10 90 bc 13 21 1b bd c7 e2 09 3d 6d e5 51 bd
       -0.017586157 -0.03787334 0.033663537 -0.051244188
000040 01 35 84 3c a1 ef ef 3c 16 0c 5a bd 80 4e b8 3d
       0.016138555 0.029289069 -0.053234182 0.08999348
000050 77 cd d9 bc 8e dc ed bb a6 18 06 bc 27 f9 cb 3d
       -0.026587231 -0.007258958 -0.008184588 0.099596314
000060 d1 55 c4 3c 32 13 91 bd 81 6f 14 3d 96 a1 8a bd
       0.023966702 -0.07083739 0.03623915 -0.06769101
000070 8e d3 e5 3b d3 32 a5 bc 0f 75 66 3c 01 e4 59 bd
       0.0070137447 -0.020165836 0.014065995 -0.053195957

mention_transformer_1/ffn_layer_2/norm/mul/ReadVariableOp/resource f4 [32]
000000 c6 f4 79 3f 9b 52 46 3f 57 af 5e 3f dd 1a 30 3f
       0.9763912 0.77469796 0.869863 0.6879099
000010 11 c2 5a 3f 09 5d 31 3f 55 25 5c 3f fb 5d 36 3f
       0.8545237 0.69282585 0.85994464 0.7123715
000020 a2 a4 50 3f de 21 5e 3f 01 47 4b 3f 32 16 2f 3f
       0.8150121 0.8677043 0.7940522 0.6839324
000030 4c 0c 3a 3f e6 a0 5f 3f 6a 04 30 3f ef 37 3a 3f
       0.72675014 0.87354887 0.68756735 0.727416
000040 b0 59 4c 3f 8b a5 3b 3f f6 90 3c 3f 02 d1 63 3f
       0.7982435 0.73299474 0.7365869 0.88990796
000050 ff 45 51 3f a9 f3 54 3f 23 6f 13 3f c5 1f 28 3f
       0.8174743 0.83184296 0.57591456 0.65673476
000060 74 93 41 3f 8f 6c 30 3f ae a8 4a 3f 4a ad 3a 3f
       0.7561562 0.6891565 0.79163635 0.7292067
000070 88 b3 18 3f 4c 2b 51 3f 77 85 57 3f 8d 50 44 3f
       0.5964894 0.8170669 0.84188026 0.7668541

mention_transformer_1/ffn_layer_2/norm/add/ReadVariableOp/resource f4 [32]
000000 19 f8 81 3c 22 ab b6 bd 9b 42 88 3c b1 1e e0 3d
       0.015865372 -0.0891936 0.016633322 0.10943354
000010 48 c1 08 3d 02 29 0e bd 49 b4 ed bc db 3e 7f 3b
       0.033387452 -0.034707077 -0.02901663 0.0038947377
000020 25 b2 93 3d 36 95 17 bd 6a 83 e2 bd 53 16 56 bd
       0.07211713 -0.037007533 -0.110602215 -0.052267384
000030 4c 0c 80 bc b3 ef 0c bd d5 db 0c 3d 13 af 37 bd
       -0.015630864 -0.034408282 0.034389336 -0.0448447
000040 a5 89 8f 3c ad 03 ca 3c 91 6d 52 bd 9e c1 a9 3d
       0.017521689 0.024659956 -0.051374022 0.08288883
000050 07 c2 f5 bc 92 f0 2d bc 83 e4 92 bb 70 c0 c7 3d
       -0.029999746 -0.010616438 -0.004482807 0.097535014
000060 35 16 ac 3c 72 1a 81 bd f9 6e 00 3d 13 13 7d bd
       0.021006683 -0.06303872 0.03135583 -0.06178577
000070 c0 ca cb 3a 92 06 ad bc 31 a3 86 3c b7 1d 41 bd
       0.0015548095 -0.021121297 0.016435238 -0.04714748

mention_transformer_1/ffn_layer_1/output_dense/add/ReadVariableOp/resource f4 [32]
000000 36 8f 64 3c 2d cf a9 bd 80 e1 f6 bc 78 15 57 bd
       0.01395016 -0.08291469 -0.030136824 -0.05251071
000010 f6 cd 05 bb d3 a4 23 bd e2 2f 5e bd fb 01 8a 3d
       -0.0020416952 -0.03995211 -0.054244883 0.06738659
000020 15 a2 b5 3d 3c a0 fb 3c bc cb 83 3b 1e 50 84 bc
       0.08868805 0.030716054 0.0040220898 -0.016151484
000030 d6 66 b9 3c dc b7 62 bd a6 9d 50 3d 91 b5 b9 bd
       0.022632044 -0.055351123 0.050931595 -0.09067834
000040 4b 32 f3 3c 26 38 79 3d fa 32 ab bc 7e 1e a0 3d
       0.029687067 0.060844563 -0.020898331 0.07818316
000050 26 53 df bd 7e 74 d4 bd 88 ea a8 bc 33 e8 59 3d
       -0.10904531 -0.103737816 -0.020619646 0.053199958
000060 8c a2 d1 bc af ae 41 3d 3b 15 95 3d 9a 39 5c bd
       -0.025590204 0.047285732 0.0727944 -0.05376587
000070 45 a5 fc bd 6b 82 61 3d be c3 43 bd 62 4b 9c 3c
       -0.1233621 0.055056017 -0.047794096 0.019078914

mention_transformer_1/ffn_layer_1/norm/mul/ReadVariableOp/resource f4 [32]
000000 e2 bb 79 3f 44 a5 70 3f 9e 7a 71 3f c8 91 5f 3f
       0.9755231 0.94002175 0.94327724 0.8733182
000010 1b 0f 6e 3f 34 c2 5e 3f c9 dd 77 3f 14 fa 6d 3f
       0.929918 0.8701508 0.9682279 0.92959714
000020 be 5d 66 3f 0d 18 69 3f 38 0c 67 3f b0 09 69 3f
       0.8998679 0.91052324 0.9025302 0.91030407
000030 3c 17 6a 3f ad 8e 4a 3f 2c 4d 57 3f 7d cd 3d 3f
       0.914417 0.79123956 0.8410213 0.74141675
000040 0f f0 80 3f 73 6b 64 3f 33 c7 53 3f d2 3a 84 3f
       1.007326 0.89226454 0.8272583 1.033045
000050 ee c4 5d 3f 41 69 6c 3f 79 85 44 3f a1 2f 5b 3f
       0.86628616 0.92348105 0.76766163 0.8561955
000060 31 12 68 3f f7 36 6d 3f 90 18 73 3f 4a 43 4b 3f
       0.9065276 0.92661995 0.94959354 0.7939955
000070 70 d4 34 3f 8d 18 54 3f 69 24 74 3f 64 b3 63 3f
       0.70636654 0.8284996 0.9536806 0.88945603

mention_transformer_1/ffn_layer_1/norm/add/ReadVariableOp/resource f4 [32]
000000 0a 80 78 3c 30 0d a2 bd 2d 7f f5 bc c1 02 62 bd
       0.015167246 -0.079126716 -0.029967869 -0.055178408
000010 42 25 9b 3a 8e 12 0f bd b3 f5 5a bd 2d 18 8a 3d
       0.0011836665 -0.034929805 -0.053456973 0.067428924
000020 31 10 a6 3d fe 07 17 3d 8d ad 07 3c 63 9a 7a bc
       0.08108557 0.036872856 0.008281124 -0.015295598
000030 01 4c dc 3c 3d b8 58 bd 19 00 51 3d d5 ef a9 bd
       0.02689171 -0.05291008 0.051025484 -0.082976975
000040 fa 23 e7 3c 22 5c 63 3d d8 49 97 bc 30 4b 98 3d
       0.028215397 0.055507787 -0.018467829 0.07436216
000050 de 2b e0 bd ae 4c d3 bd 5b ab 84 bc a1 eb 53 3d
       -0.10945867 -0.1031736 -0.01619499 0.051738385
000060 e5 52 d8 bc b7 2e 54 3d 28 45 88 3d 93 90 41 bd
       -0.026406715 0.051802363 0.066538155 -0.047257017
000070 ca 0b 02 be 1f 90 58 3d d6 7e 3c bd 4b 31 c6 3c
       -0.1269981 0.05287182 -0.046019398 0.024193427

mention_transformer_1/ffn_layer_0/output_dense/add/ReadVariableOp/resource f4 [32]
000000 c9 21 12 3d 69 65 c8 bc 0c 27 45 3c 16 ce e5 bd
       0.03567675 -0.024462419 0.012033235 -0.112209484
000010 be 6d 06 3d 24 cb c8 3c 61 bd c5 bd 01 51 e9 bc
       0.032819502 0.024510927 -0.09655262 -0.028481008
000020 08 74 9d 3b b5 60 08 3d 0c bd 41 3c f9 e9 d6 bc
       0.004805092 0.033295352 0.011824857 -0.026234614
000030 70 4e 26 3d c5 18 c1 3c 93 68 98 bc de 72 e1 3b
       0.040602148 0.023571381 -0.018604552 0.0068801483
000040 2e f6 1d bd b6 7d f5 3d 0f fc 99 3d 10 84 f3 3c
       -0.038564853 0.11986868 0.075187795 0.029726058
000050 19 37 0d be 38 1f 97 bd 51 e5 9a bd 77 95 87 bb
       -0.1379055 -0.073790014 -0.0756327 -0.0041376906
000060 d0 33 2a 3d d2 94 fb 3c 98 78 60 3d 1c 6d 82 bd
       0.04155332 0.030710611 0.054802507 -0.06368467
000070 c2 29 b8 bd 79 ae 9f 3d 7b dd 30 bd b6 24 81 3c
       -0.0899234 0.0779695 -0.04317997 0.015764575

mention_transformer_1/ffn_layer_0/norm/mul/ReadVariableOp/resource f4 [32]
000000 b2 8d 74 3f 78 d0 7c 3f b2 6b 81 3f b6 c2 7a 3f
       0.9552871 0.987556 1.0110991 0.97953355
000010 2c 1b 71 3f e2 a9 7b 3f 80 a2 85 3f 08 85 6c 3f
       0.94182086 0.98306096 1.0440216 0.9239049
000020 37 cc 6a 3f 6a 81 6c 3f 2c f7 7e 3f 57 55 77 3f
       0.9171786 0.9238497 0.99595904 0.96614593
000030 28 da 82 3f 8e bf 6c 3f 48 be 77 3f 87 30 81 3f
       1.0222826 0.9247979 0.9677472 1.0092934
000040 64 e8 78 3f 0e 35 62 3f b2 a6 88 3f c1 1b 8d 3f
       0.972296 0.88362205 1.0675871 1.1024095
000050 3b c5 75 3f 65 ad 70 3f d5 07 49 3f 21 9d 80 3f
       0.96004075 0.9401458 0.78527576 1.0047952
000060 f4 54 89 3f 5c 55 6e 3f 8d 0f 85 3f 0e 48 68 3f
       1.0729051 0.93099 1.0395371 0.90734947
000070 b5 5c 68 3f c9 c0 73 3f 4a 20 82 3f 0b 5b 70 3f
       0.9076646 0.9521604 1.0166104 0.9388892

mention_transformer_1/ffn_layer_0/norm/add/ReadVariableOp/resource f4 [32]
000000 5f 9a 18 3d 16 5d 9d bc cb 72 48 3c f9 99 e3 bd
       0.037256595 -0.019209426 0.0122344 -0.11113352
000010 e9 e0 10 3d dc 18 dd 3c 53 44 c0 bd 8b 9a d1 bc
       0.03537074 0.026989393 -0.09388032 -0.025586387
000020 2e d4 45 bb 97 9b 22 3d 1d bd 5d 3c 6c 55 c7 bc
       -0.0030186283 0.039699163 0.013533858 -0.024332725
000030 77 6f 2c 3d 0d a9 cf 3c 2d 52 9f bc 28 b6 36 3c
       0.04209849 0.025349164 -0.019448364 0.011151828
000040 30 31 2d bd 57 5f e7 3d d7 56 9c 3d 86 23 e3 3c
       -0.042283237 0.112974815 0.07633751 0.0277269
000050 af 2c 0a be 91 19 94 bd 55 c7 8f bd 23 4a 2e bb
       -0.13493608 -0.07231439 -0.070204414 -0.0026594482
000060 e6 d9 1b 3d 8a cb 07 3d 98 1d 45 3d 07 34 6b bd
       0.0380496 0.033153094 0.048123926 -0.057422664
000070 40 66 b6 bd e0 d7 97 3d aa 53 2c bd 87 d2 9e 3c
       -0.089062214 0.07414222 -0.042071976 0.019387497

mention_transformer_1/bottleneck_input/norm/add f4 [32]
000000 ff de 75 3e 62 d9 b9 bd 55 0d 97 3c cf 8d 71 be
       0.24010848 -0.090746656 0.018438974 -0.23589252
000010 64 b9 68 3e ec b5 51 3e 8e 9d 7d 3d 8b b7 8c be
       0.22726971 0.20479554 0.061917834 -0.27483782
000020 f3 b3 37 3e 2a 4e 96 3c d6 aa 40 be f0 d4 f6 3d
       0.17939739 0.018347818 -0.18815169 0.12052333
000030 13 1d 67 bd 19 d9 c5 3c ec b3 b7 bd 21 9e 1c 3e
       -0.05642421 0.024151372 -0.08969864 0.15294696
000040 cc e0 33 3e c4 c6 5a 3d 4a 65 72 3e fb b2 a0 3d
       0.17566222 0.053412214 0.23671451 0.07846638
000050 56 07 b6 bc e6 9d 69 be 6e 30 9b bc 53 2f 9f be
       -0.022220295 -0.2281414 -0.018943992 -0.31090793
000060 84 bf 74 3c 50 6f 7c 3e 52 3c 82 bd 18 3d 95 bd
       0.014938239 0.24651837 -0.063591614 -0.07287043
000070 88 ae 19 3d ed 97 d4 bd 4a a9 79 be 4c f8 07 bd
       0.03751996 -0.1038054 -0.24380985 -0.03319578

mention_transformer_1/attention/attention_output/add/ReadVariableOp/resource f4 [32]
000000 0d 77 08 3d 4b cf 06 bd e5 31 b7 bb 62 2d 14 be
       0.03331666 -0.032912534 -0.0055906647 -0.14470437
000010 3c d1 74 3d 00 9d 5f 3c 37 e5 65 bc 7a 11 97 bc
       0.059769854 0.013648272 -0.0140317 -0.01844095
000020 84 aa 5d bc bd 8c 90 3c fa 2d 7d bd 60 ac 80 3c
       -0.013529424 0.017645234 -0.061811425 0.015707195
000030 0a e6 91 bc 3f 0c c1 3c 82 43 33 bd bf b7 46 3d
       -0.017809886 0.02356541 -0.043765552 0.048515078
000040 4a df b1 3d db 4d 9f 3d fd 81 78 3d e1 74 78 3d
       0.08685167 0.077785216 0.06067084 0.06065834
000050 bc 83 97 bd 6a 3d 8d bd 1a d8 05 3d 95 1b c8 bd
       -0.07398173 -0.068964794 0.032676794 -0.09770886
000060 2c 28 02 3d 4a da 71 3d a5 8d 31 bd b1 8b 83 bd
       0.031776592 0.059046067 -0.043347973 -0.064231284
000070 ac 79 e7 bc 1c c5 96 bc c6 b2 57 bd b1 83 b6 3c
       -0.02825626 -0.018404536 -0.052660726 0.022279592

mention_transformer_1/attention/norm/mul/ReadVariableOp/resource f4 [32]
000000 ae 74 82 3f ea f1 84 3f c9 27 74 3f 7a 9e 8d 3f
       1.0191858 1.0386326 0.9537321 1.1063988
000010 75 4e 75 3f c0 2b 73 3f 53 ad 8b 3f 97 be 7d 3f
       0.9582284 0.9498863 1.0912269 0.9911894
000020 88 3c 7a 3f 47 ff 6b 3f 1d 65 82 3f 1d 0d 84 3f
       0.97748613 0.921864 1.0187107 1.0316502
000030 be 28 87 3f 93 8d 84 3f bc 99 77 3f 09 39 87 3f
       1.0559309 1.0355705 0.96718955 1.0564281
000040 7e 5f 80 3f 1a e9 6f 3f 37 02 9a 3f e3 68 97 3f
       1.0029142 0.9371506 1.2031926 1.1828884
000050 73 b0 7a 3f 3a f1 80 3f b4 8d 80 3f c6 ec 87 3f
       0.9792549 1.0073617 1.0043244 1.0619133
000060 55 83 82 3f ea ce 6a 3f 31 88 90 3f dc 68 83 3f
       1.0196329 0.91721976 1.1291562 1.0266376
000070 88 c4 8a 3f 9a 6e 83 3f 98 44 92 3f 0d 4d 83 3f
       1.0841227 1.0268128 1.1427183 1.0257889

mention_transformer_1/attention/norm/add/ReadVariableOp/resource f4 [32]
000000 ec 6e 08 3d 51 ef dd bc 8e 37 da bb e5 64 0f be
       0.03330891 -0.027091654 -0.0066594547 -0.14003332
000010 b1 3e 7c 3d 22 4c 5b 3c 96 41 5d bc 08 a7 71 bc
       0.061583225 0.013384851 -0.013504406 -0.014749296
000020 df ad 9f bc cd b3 d3 3c eb 14 77 bd ec 9f 87 3c
       -0.019492088 0.025842572 -0.060322683 0.016555749
000030 aa cc 6c bc 80 b5 ba 3c 7f 2a 2f bd 46 91 53 3d
       -0.014453093 0.022791624 -0.042765137 0.051652215
000040 b4 0c a7 3d cb 6a 98 3d cb 14 77 3d 4a b3 6d 3d
       0.0815672 0.07442244 0.060322564 0.05803231
000050 97 54 8f bd 8e 63 85 bd 25 65 f4 3c 8c 83 c1 bd
       -0.06998556 -0.06513129 0.029833386 -0.09448919
000060 10 7f f0 3c 20 38 70 3d fd 2e 45 bd a9 ce 73 bd
       0.029357463 0.058647275 -0.048140515 -0.05952326
000070 6b d3 cc bc ab c7 ac bc e7 4b 56 bd 00 21 b2 3c
       -0.025003156 -0.021091303 -0.05231848 0.021744251

mention_transformer_0/ffn_layer_3/output_dense/add/ReadVariableOp/resource f4 [32]
000000 12 16 3d 3d 35 c8 9f 3c 17 bf 8a 3d 1b 00 38 bd
       0.046163626 0.019504646 0.06774729 -0.044921976
000010 73 a2 0c bd ce cb fc bc 5e af cf 3b 78 43 6a 3c
       -0.03433461 -0.0308589 0.006338044 0.014298312
000020 07 e2 22 3c aa 4b e1 3b 6d 18 3f 3d b0 44 c3 bc
       0.009941584 0.006875475 0.046654154 -0.023836464
000030 aa 11 ee bc 1f d4 db bc bf f8 17 bc ec 50 32 bd
       -0.029061157 -0.026834546 -0.009275614 -0.043534204
000040 60 42 0e 3c ac 85 94 3c 75 49 83 ba 40 bb 08 3d
       0.008682817 0.018130146 -0.0010016399 0.0333817
000050 a7 15 49 3d 90 f6 98 3c 25 ec 07 3c 60 7b 93 bc
       0.049092915 0.018672258 0.008296047 -0.018003166
000060 10 43 8a bc 36 da 83 3d 39 60 13 bd ec af 29 3d
       -0.016877681 0.06438105 -0.035980437 0.041427538
000070 96 ee f9 3a d5 3f b0 bc 1d 1b 68 bd 05 84 d6 3d
       0.0019068297 -0.021514812 -0.056666482 0.104743995

mention_transformer_0/ffn_layer_2/output_dense/add/ReadVariableOp/resource f4 [32]
000000 b1 bc 3d 3d 41 78 34 bc ba 32 44 3d b0 aa fb ba
       0.04632253 -0.011014999 0.04789994 -0.0019200649
000010 d2 1f ea 3c 11 5f 37 3d d2 3d 11 bd dd 65 da 39
       0.028579626 0.044768397 -0.035459347 0.00041656094
000020 c4 87 e9 3b f6 0c 93 3c ba ca 31 3d 4f 34 78 3d
       0.00712678 0.017950516 0.043406226 0.06059676
000030 32 c4 6a bd 3b bf 9c bc af 3b 13 bd 6b b8 82 bd
       -0.057316013 -0.019134155 -0.03594559 -0.06382831
000040 e2 c0 89 bd a2 a6 a6 3d 37 44 c7 bc cb 55 ac bc
       -0.067262426 0.081372514 -0.02432452 -0.021037003
000050 41 02 6b 3d 88 7d 4b bb 16 72 3e 3b 41 a1 d1 bc
       0.057375196 -0.0031050164 0.00290597 -0.025589587
000060 05 9c 5e bd 1d ff 2d 3d 6f 97 b5 bd 21 69 6d bc
       -0.05434801 0.042479623 -0.08866774 -0.014490397
000070 b8 22 ab ba 5d c9 6b bc 03 7c 23 bd 8e 8e 60 bc
       -0.0013056612 -0.0143912705 -0.03991319 -0.013705863

mention_transformer_0/ffn_layer_2/norm/mul/ReadVariableOp/resource f4 [32]
000000 d1 ef 56 3f a5 3d 20 3f 68 86 4d 3f 72 10 2c 3f
       0.8395968 0.6259406 0.8028321 0.67212594
000010 4b 5c 35 3f 88 cc c4 3e 6e ca 20 3f e9 35 37 3f
       0.7084395 0.38437295 0.62808883 0.71566635
000020 11 16 1f 3f 43 fb 0c 3f 39 a9 28 3f f9 29 58 3f
       0.62143046 0.55070895 0.65883213 0.84439045
000030 02 c6 3b 3f c5 79 0a 3f 05 9f 27 3f 4b 2a 48 3f
       0.7334901 0.54092056 0.6547702 0.78189534
000040 a5 b2 3e 3f b5 66 10 3f 86 9d 2e 3f df 04 3b 3f
       0.7449134 0.5640672 0.6820911 0.7305431
000050 5c 2e 48 3f a5 05 33 3f f7 ab 27 3f a2 fb 30 3f
       0.7819574 0.6993049 0.6549677 0.6913396
000060 81 3c 1c 3f c3 9f 44 3f 33 2e 36 3f 40 d5 46 3f
       0.6102982 0.7680628 0.71164244 0.77669144
000070 90 0d 34 3f 82 54 36 3f 21 65 32 3f a0 f1 5a 3f
       0.70333195 0.712227 0.6968556 0.8552494

mention_transformer_0/ffn_layer_2/norm/add/ReadVariableOp/resource f4 [32]
000000 6d ce 38 3d 92 02 27 bc 31 11 3f 3d b1 53 e6 3a
       0.045118738 -0.010193484 0.046647254 0.0017572549
000010 0d c8 eb 3c c5 8b 0b 3d 46 2a 10 bd 22 75 f6 39
       0.028781915 0.03406884 -0.035196565 0.00047008047
000020 40 a5 1e 3c 2a 28 58 3c ef ef 23 3d 84 43 6c 3d
       0.009682953 0.01319317 0.04002374 0.057681575
000030 ff 46 64 bd 9e 12 65 bc c1 87 10 bd fa ba 73 bd
       -0.05573177 -0.013981489 -0.035285715 -0.059504487
000040 e4 84 81 bd 7f 89 a1 3d df 73 c7 bc 60 1e a3 bc
       -0.06324175 0.078875534 -0.024347244 -0.019911945
000050 05 58 62 3d 64 92 1f bb 6c 19 02 ba d7 aa c2 bc
       0.055259723 -0.002434873 -0.00049628946 -0.023763103
000060 e9 8b 5b bd 0e dc 24 3d 50 a4 aa bd a3 a3 84 bc
       -0.053600226 0.040248923 -0.08332121 -0.01619131
000070 65 fe 36 3a 3e 22 2e bc 91 22 1c bd 7f 32 92 bc
       0.0006980657 -0.010628281 -0.038118903 -0.017846344

mention_transformer_0/ffn_layer_1/output_dense/add/ReadVariableOp/resource f4 [32]
000000 f0 8f a6 3c aa 48 86 3b 4e e8 b9 3c 16 fe 8a 3c
       0.020332307 0.0040980177 0.02269378 0.01696686
000010 8f 36 20 bc c4 5e 35 3d 33 8a ad bd 7f a9 53 3c
       -0.009778633 0.04427983 -0.08473625 0.012918829
000020 6c 6e 87 bc 31 f4 b9 bb df 35 73 bc 23 d2 40 3d
       -0.016532145 -0.005674862 -0.014844387 0.047075402
000030 fd a3 50 bc d2 28 24 bd bc 4c 2e 3c 82 a6 d8 bc
       -0.01273441 -0.04007799 0.010638412 -0.026446585
000040 e3 e8 09 bd a5 9a 3f 3d 7c 06 fa 3c 8e 5f c2 bc
       -0.033669364 0.04677834 0.03052067 -0.023727205
000050 cb de 3c 3d cf 0e 08 bd ad 90 2e 3d 2f 44 ed bc
       0.04611091 -0.033217248 0.042618442 -0.028963177
000060 6a d6 b7 bd b7 c0 9a 3d 01 57 f5 bc 23 48 a3 3c
       -0.08976443 0.07556289 -0.029948713 0.019931858
000070 2a f0 83 3c 37 df 05 3d 7c 9e 34 3c f1 d7 c7 39
       0.01610573 0.032683577 0.011024114 0.00038117127

mention_transformer_0/ffn_layer_1/norm/mul/ReadVariableOp/resource f4 [32]
000000 f7 b5 4f 3f 22 bd 50 3f 59 d1 49 3f 21 8e 5a 3f
       0.8113703 0.81538594 0.78835064 0.8537312
000010 31 7d 58 3f 2c 32 58 3f 58 4d 53 3f a3 c9 60 3f
       0.84566027 0.84451556 0.8253989 0.87807673
000020 3c a5 77 3f ed 90 3c 3f 39 50 56 3f 5a 8f 6a 3f
       0.967365 0.7365864 0.8371616 0.9162499
000030 a8 eb 4e 3f e2 e5 41 3f fa a6 69 3f c8 e4 6a 3f
       0.8082833 0.757414 0.9127041 0.9175534
000040 30 ca 50 3f f5 16 4b 3f 00 aa 6e 3f b0 7e 5f 3f
       0.81558514 0.79331905 0.9322815 0.87302685
000050 2a c8 58 3f ac 6e 6b 3f 17 46 4f 3f 8d 1a 5d 3f
       0.84680426 0.91965747 0.80966324 0.8636864
000060 0f 36 71 3f 5f 9e 5e 3f b7 58 64 3f 68 1a 6d 3f
       0.9422311 0.86960405 0.8919787 0.9261842
000070 b7 fd 68 3f 32 65 70 3f 1c bf 5b 3f 11 d0 6d 3f
       0.9101214 0.9390441 0.85838485 0.9289561

mention_transformer_0/ffn_layer_1/norm/add/ReadVariableOp/resource f4 [32]
000000 64 94 a4 3c b9 52 ed b9 72 83 b1 3c 4c d3 8a 3c
       0.02009029 -0.00045265796 0.021669123 0.016946457
000010 1c da 0c bc a9 48 17 3d 33 e6 ac bd f7 ea 55 3c
       -0.008596923 0.03693453 -0.084423445 0.013056508
000020 08 83 61 bc 03 b2 3a bc 8e a0 96 bc 2a b1 2f 3d
       -0.01376415 -0.01139498 -0.018387105 0.042893566
000030 fa 22 3b bc 27 cb 16 bd 23 f8 1c 3c 17 0a af bc
       -0.011421913 -0.036814835 0.009580645 -0.021367116
000040 32 da ec bc 88 32 2f 3d 81 c8 df 3c d3 8a c5 bc
       -0.028912637 0.0427728 0.027317287 -0.024114048
000050 1a ec 31 3d 2a 26 03 bd 2d 1e 28 3d 8b 2a e8 bc
       0.043438055 -0.032018818 0.041044403 -0.028340599
000060 ca e3 b4 bd 7b 84 90 3d a9 2f d4 bc e0 31 85 3c
       -0.0883251 0.07056519 -0.025901632 0.016259134
000070 52 8b 73 3c bf 48 09 3d e9 9a f3 3b ef cd 9e bb
       0.0148647595 0.03351664 0.007434238 -0.0048463265

mention_transformer_0/ffn_layer_0/output_dense/add/ReadVariableOp/resource f4 [32]
000000 7e 07 83 3c b8 44 eb bc 93 96 b8 3d 27 a6 88 bc
       0.015994783 -0.028719291 0.09013095 -0.01668079
000010 99 3f c0 3c 61 11 eb 3d ed 44 47 3c d4 0c 9c 3b
       0.023467826 0.11477924 0.012162429 0.0047622714
000020 94 a1 68 bc 18 be db 3b e3 56 a7 ba ed c9 35 3d
       -0.0141986795 0.0067060106 -0.0012766983 0.044382025
000030 4c 1f 8c 3c 46 c9 e1 3d ef 98 62 bd 4d 88 2d 3c
       0.017104767 0.11024718 -0.05532163 0.010591579
000040 e0 fe 57 3d dc 15 14 bc 9d eb c9 3c 75 af c3 3c
       0.052733302 -0.009038415 0.024648482 0.023887375
000050 05 ea 00 3d 4f 4b d3 bc 53 55 95 3c 0a 07 ed bc
       0.03147318 -0.025792746 0.018229162 -0.02893402
000060 23 03 18 bd d0 07 fc 3c dd 8e c2 3c b7 d7 f1 3c
       -0.037112366 0.030765444 0.023749763 0.029521806
000070 5c 9a 46 bc 9a f2 66 3c 80 16 01 3d 1c d7 83 3c
       -0.012121763 0.014095927 0.0315156 0.016093783

mention_transformer_0/ffn_layer_0/norm/mul/ReadVariableOp/resource f4 [32]
000000 ea e2 70 3f b8 a3 7d 3f e3 33 79 3f 25 b4 5d 3f
       0.94096243 0.9907794 0.973448 0.86603004
000010 3e 3e 75 3f 53 a4 68 3f 92 a9 74 3f 64 0d 73 3f
       0.957981 0.9087574 0.95571244 0.9494231
000020 86 07 85 3f e6 df 64 3f a6 0f 81 3f b7 a1 79 3f
       1.0392921 0.8940414 1.00829 0.9751238
000030 6d 8f 61 3f 13 9f 79 3f 57 9f 81 3f 2e 78 88 3f
       0.88109475 0.97508353 1.0126752 1.0661676
000040 c0 3f 81 3f 23 34 75 3f 59 c0 7f 3f f7 01 73 3f
       1.009758 0.9578268 0.99902874 0.94924873
000050 6b bc 70 3f 70 87 6a 3f bc 68 62 3f 01 a1 87 3f
       0.94037503 0.9161291 0.8844106 1.059601
000060 02 fb 67 3f 3b 21 6d 3f ee 65 81 3f 76 b2 83 3f
       0.9061738 0.9262883 1.0109231 1.0288837
000070 8c 87 7d 3f 43 0d 7b 3f f5 2f 7b 3f bd 7a 73 3f
       0.99034953 0.9806711 0.9812005 0.9510916

mention_transformer_0/ffn_layer_0/norm/add/ReadVariableOp/resource f4 [32]
000000 9c 61 8a 3c 1b d6 f3 bc 4b 74 b1 3d 75 61 8a bc
       0.016892247 -0.02976518 0.08664759 -0.016892174
000010 55 f2 cd 3c be 69 da 3d 0b 5b 10 3c 90 01 ab 3b
       0.025139967 0.106647 0.008810769 0.005218692
000020 fc bd 40 bc 22 6a f2 3a 01 5b b6 bb 4a 82 2a 3d
       -0.011764046 0.0018494765 -0.0055650477 0.04162816
000030 c0 78 75 3c 6d 2d e2 3d 36 11 60 bd c3 3f 3c 3c
       0.014982402 0.110438205 -0.054703914 0.011489811
000040 80 86 67 3d 60 d0 32 bc b9 24 b1 3c a9 28 ca 3c
       0.056524754 -0.010913938 0.021623956 0.024677591
000050 66 9a f2 3c f6 a1 c5 bc e3 7d a4 3c e9 55 e0 bc
       0.029614639 -0.02412508 0.020079559 -0.027384715
000060 0e 25 07 bd fc 1f d5 3c 06 84 cb 3c 13 5e d5 3c
       -0.032994322 0.026016228 0.024843227 0.026045835
000070 3b bc 41 bc 31 d5 98 3c 53 64 f1 3c c5 a3 31 3c
       -0.011824663 0.018656345 0.029466784 0.010842268

mention_transformer_0/bottleneck_output/norm/mul/ReadVariableOp/resource f4 [32]
000000 5e 18 a0 3f 8a 6e a4 3f 29 65 a7 3f d4 33 9d 3f
       1.2507436 1.2846234 1.3077747 1.2281442
000010 af e4 a8 3f b6 a2 8f 3f a2 95 98 3f 79 8f 9b 3f
       1.3194789 1.122153 1.1920664 1.2153159
000020 47 a6 86 3f ce 93 9e 3f b5 11 8d 3f cc db 96 3f
       1.0519494 1.2388856 1.1021029 1.1785827
000030 5f 93 8e 3f 0e 5d 85 3f 70 e3 99 3f d9 6e 98 3f
       1.1138724 1.0419023 1.2022533 1.1908828
000040 5b 90 a3 3f 85 29 9d 3f ed 60 89 3f 1c 4f b1 3f
       1.2778429 1.2278296 1.0732704 1.3852267
000050 bd 93 9b 3f 4d fd 9e 3f f6 84 ab 3f 2a 21 96 3f
       1.2154461 1.2421051 1.3399951 1.1728871
000060 88 d1 92 3f 6b f4 a4 3f 08 f8 47 3f 5b b9 8a 3f
       1.1470194 1.288709 0.7811284 1.0837816
000070 ed 0f 94 3f 8d 1a 7e 3f 73 eb 89 3f dc 85 9f 3f
       1.156736 0.99259263 1.0774978 1.2462726

mention_transformer_0/bottleneck_output/norm/add/ReadVariableOp/resource f4 [32]
000000 03 ce cf 3c 95 79 4a 3c 61 d6 2f 3d ca e0 4b bd
       0.025366789 0.012358089 0.042929057 -0.049774922
000010 f6 d1 c3 bd bc 46 3c be 20 5b 13 be f3 e7 d6 bc
       -0.09561531 -0.18386358 -0.1439023 -0.026233649
000020 6f 9e 88 3e f8 76 ec bb 2c 0a 82 be a9 2b 9c bd
       0.26683375 -0.0072163306 -0.25398386 -0.07625515
000030 4f d1 3a 3d ea ea 17 bd e5 84 88 bd 4c 09 a3 3d
       0.04560977 -0.037089266 -0.066659726 0.079607576
000040 25 19 94 bb 60 11 12 3c 63 ab 16 bd b0 00 88 bd
       -0.004519599 0.008915275 -0.03678454 -0.06640756
000050 51 15 8a 3d 47 3e b9 bb 90 42 93 3d cc 9b 66 bd
       0.06742347 -0.005653176 0.0719043 -0.056300923
000060 85 b2 4d bd 88 08 c0 3d 41 c8 dd bd 3a 00 b3 bd
       -0.050219078 0.09376627 -0.10829211 -0.087402776
000070 12 c1 1a 3d 96 0e 61 bd 5f 35 f6 3d d2 59 63 3e
       0.037781782 -0.05494555 0.120218985 0.22202232

mention_transformer_0/bottleneck_input/norm/add f4 [32]
000000 62 09 bf 3d 10 ac 4d be f2 ef 19 bd c8 85 7a bd
       0.093279615 -0.20085168 -0.037582345 -0.06116274
000010 b2 69 e1 bd 0e f2 35 be 50 9a 49 bd d8 a7 a2 3d
       -0.11006488 -0.17768118 -0.04921943 0.0794217
000020 84 0c 11 be 8d e9 4a be c6 7b 84 3e f7 59 fe bd
       -0.1416493 -0.19815655 0.25875682 -0.12419503
000030 00 b5 89 bd 36 af 95 bd 80 75 22 be ea fa db bd
       -0.06723976 -0.073088095 -0.15865135 -0.107412174
000040 70 ca 44 3e 78 16 2f 3e 4e 6b 1c 3e 72 7b 68 bd
       0.19217849 0.17098415 0.15275308 -0.05675835
000050 0e 5b 78 bc a2 71 5c be e2 9b 4d 3d c0 47 13 3d
       -0.015158428 -0.21527722 0.05019749 0.035957098
000060 b6 d9 d8 bd 08 6d b1 3d 16 3b 26 3e c8 0a 38 3e
       -0.105884 0.08663374 0.16233477 0.17972863
000070 de 13 84 be b8 8a 2a 3e 7a 2a 0d bd 69 33 8c bc
       -0.25796407 0.1665448 -0.034464337 -0.017114358

mention_transformer_0/attention/attention_output/add/ReadVariableOp/resource f4 [32]
000000 91 84 4f 3d 76 b8 b6 bd 10 29 8d bc 55 48 da bc
       0.050663535 -0.08921902 -0.017231494 -0.026645819
000010 f7 b4 5d bd 8f 95 9d bd e3 b1 c7 bc bf b8 1f 3d
       -0.05412766 -0.07694542 -0.024376815 0.038994547
000020 78 cc 8b bd 57 61 c8 bd a5 8b 09 3e ba 6a 76 bd
       -0.06826109 -0.09784191 0.13432176 -0.060160376
000030 f0 e7 1c bd bc 2b 0b bd 39 7f a1 bd bb 49 4d bd
       -0.03830713 -0.033977255 -0.07885594 -0.050119143
000040 a2 cc dc 3d 07 ba 98 3d 87 8d 8f 3d 9b 7f d4 bc
       0.10781218 0.07457357 0.07009416 -0.025939753
000050 77 71 c8 bb d2 65 d5 bd a5 0d e7 3c 1f 25 96 3c
       -0.0061170417 -0.10419811 0.028204748 0.018328248
000060 9e 31 4f bd ba 40 23 3d 79 22 99 3d 4b 20 aa 3d
       -0.050584428 0.03985665 0.07477278 0.08306941
000070 41 f7 f7 bd 20 1f 9f 3d 75 55 85 bc 64 d6 b4 bb
       -0.12107707 0.077696085 -0.0162761 -0.0055187214

mention_transformer_0/attention/norm/mul/ReadVariableOp/resource f4 [32]
000000 6e 0f 74 3f f1 cb 82 3f 0f b3 80 3f 45 fb 89 3f
       0.95336044 1.0218488 1.0054644 1.0779806
000010 71 72 6d 3f f5 11 88 3f eb 62 72 3f a4 9b 78 3f
       0.9275275 1.063048 0.94682187 0.9711249
000020 58 a3 89 3f 9f ad 98 3f 94 51 94 3f 63 7f 82 3f
       1.0752974 1.1927985 1.1587396 1.0195125
000030 fd 30 4c 3f d4 da 94 3f a1 bd 8f 3f 7b 88 91 3f
       0.7976225 1.1629281 1.1229745 1.1369776
000040 b8 6d 79 3f ac 5a 8f 3f 74 26 8e 3f e8 54 74 3f
       0.9743304 1.1199546 1.1105485 0.95442057
000050 56 09 5d 3f 94 62 7f 3f f5 a5 74 3f 64 2d 81 3f
       0.8634237 0.99759793 0.9556573 1.0091977
000060 eb 36 58 3f 1d 74 6d 3f 6d d2 8f 3f 5c 0f 95 3f
       0.844588 0.927553 1.1236092 1.1645312
000070 c5 19 98 3f 6e b1 81 3f d2 b8 74 3f af 83 7f 3f
       1.1882864 1.0132272 0.95594513 0.9981031

mention_transformer_0/attention/norm/add/ReadVariableOp/resource f4 [32]
000000 2e d8 54 3d 35 dd b2 bd cb c3 a5 bc 99 a3 c3 bc
       0.051963978 -0.08733598 -0.020234963 -0.02388172
000010 4a e6 50 bd fa 56 a0 bd 0e 41 df bc dd 3f 1e 3d
       -0.05100087 -0.078290895 -0.0272527 0.038635124
000020 a4 99 81 bd 2c e8 ca bd 42 9b 05 3e 1e dc 70 bd
       -0.06328133 -0.099075645 0.13047507 -0.05880367
000030 42 ae 1f bd 02 8a 0e bd 1c 20 9f bd a2 1f 50 bd
       -0.038984545 -0.034799583 -0.07769796 -0.050811417
000040 0f 41 da 3d 9c 36 99 3d a5 d5 87 3d f6 dd da bc
       0.1065694 0.07481119 0.06632546 -0.026717167
000050 6e 45 e2 bb 0c 21 ce bd 41 15 ee 3c d6 cd 97 3c
       -0.0069052493 -0.10064897 0.029062869 0.018530767
000060 c9 bc 38 bd 48 43 11 3d ee 3e 98 3d 9c 5f a0 3d
       -0.045101915 0.035464555 0.07433878 0.07830736
000070 18 04 f2 bd df e0 a5 3d 48 a5 95 bc 80 20 25 bc
       -0.11817187 0.080995314 -0.018267289 -0.010078549

context_transformer_1/ffn_layer_3/output_dense/add/ReadVariableOp/resource f4 [32]
000000 5c 11 56 bb 05 1b b0 bc d4 7f 73 3a 3f b1 32 3c
       -0.0032664156 -0.021497259 0.0009288762 0.010906517
000010 6d 59 67 bc f6 3a b4 bc 98 48 a8 bc 0e cd b3 3c
       -0.014120442 -0.022000771 -0.020542428 0.021948364
000020 0f 04 1b bc 1a 89 95 bc e3 a5 bd 3b 71 b3 99 3a
       -0.009461417 -0.018253852 0.0057875975 0.0011726451
000030 af ac 8b bb f4 48 cc 3c 9e 5d 73 bc 54 9e ec bc
       -0.004262529 0.02493713 -0.014853863 -0.02888409
000040 7d 1a b8 bb 12 d1 ce ba 5a 38 9f bc 0e 5a f9 3b
       -0.005618392 -0.001577886 -0.01943605 0.0076096123
000050 ea 71 bc 3c b5 a3 b1 39 f9 f0 c5 3c ef c8 36 3d
       0.023003537 0.00033882042 0.024162756 0.04462522
000060 fb 44 f9 bb 72 8c 4c bb 20 47 a3 3b fa 7d f3 3b
       -0.0076071 -0.0031211642 0.004982844 0.007430789
000070 81 df 5b bb e3 29 00 3c 76 16 ce bc 64 e7 f8 3c
       -0.0033549967 0.007822487 -0.025157195 0.030383773

context_transformer_1/ffn_layer_2/output_dense/add/ReadVariableOp/resource f4 [32]
000000 55 58 40 3d fa ac 96 3d 56 3d 25 3d 1c 8e a0 bc
       0.04695924 0.073572114 0.040341698 -0.019599013
000010 8c 8f be bb 0a 34 f9 3b 50 e7 af bb df 5e 1d bd
       -0.005815452 0.0076050805 -0.005368151 -0.038420554
000020 1f 55 7f bd 89 3d b0 bc 52 ca 13 bd 7c a4 04 3d
       -0.062337037 -0.021513717 -0.03608162 0.032383427
000030 b8 ad 12 3c ac d1 02 3d 45 a0 e7 bb 05 d5 b0 3d
       0.008952551 0.03193824 -0.007068666 0.0863438
000040 e6 1e 73 3d 96 57 ad bd c8 0f 76 3d 45 39 23 bc
       0.05935564 -0.08463971 0.060073644 -0.009962385
000050 13 db 04 bd c1 cc e3 3c 6f 5c ea bb 68 14 19 bc
       -0.032435488 0.027807595 -0.007152132 -0.009343244
000060 1a ad 72 bc 61 0a 07 bd af be 88 3c 93 b8 73 bd
       -0.014811778 -0.032968882 0.016692488 -0.059502196
000070 02 51 c1 bc 36 75 80 bc 91 3b 4e 3c 13 7c 83 3c
       -0.023598198 -0.01568089 0.012587444 0.016050374

context_transformer_1/ffn_layer_2/norm/mul/ReadVariableOp/resource f4 [32]
000000 f9 25 17 3f 1a 8b 1d 3f fa 39 29 3f 85 fb 4f 3f
       0.59042317 0.6154038 0.6610409 0.81243163
000010 4f 46 16 3f 05 a4 10 3f cc 2f 31 3f 58 f8 47 3f
       0.5870103 0.56500274 0.6921356 0.7811332
000020 1e 13 29 3f 56 c1 3f 3f 40 e7 2d 3f 8e 75 41 3f
       0.66044796 0.7490438 0.67930984 0.7557
000030 5c e2 4c 3f 24 61 45 3f 5b 42 0e 3f fa c7 34 3f
       0.80032897 0.7710135 0.5557 0.7061764
000040 2d 3c 30 3f e2 28 2e 3f cf d6 1e 3f 4c 61 3d 3f
       0.6884182 0.6803113 0.6204652 0.7397659
000050 d4 9b 2c 3f f6 5c 32 3f 6e df 16 3f 51 f3 3a 3f
       0.67425275 0.696731 0.58934677 0.7302752
000060 56 61 38 3f c9 4d 3e 3f 20 9c 3a 3f 97 a9 1e 3f
       0.7202352 0.7433744 0.7289448 0.61977524
000070 c6 70 2a 3f 04 1a 48 3f 13 48 4a 3f 4f 51 30 3f
       0.6657833 0.78164697 0.79016227 0.6887407

context_transformer_1/ffn_layer_2/norm/add/ReadVariableOp/resource f4 [32]
000000 d4 48 3c 3d 4a 2d 97 3d 6a 79 14 3d dd f3 a2 bc
       0.04596789 0.07381685 0.036248602 -0.019891674
000010 0d b8 e6 3a 57 37 7f 3c ab b2 11 b9 72 0d 29 bd
       0.0017602459 0.015577159 -0.00013894837 -0.041272588
000020 23 10 6e bd 6a 9d 92 bc 18 3e 0b bd 61 7a e4 3c
       -0.058120858 -0.017897326 -0.033994764 0.027890386
000030 00 35 f8 3b 5f 10 ea 3c 82 f4 79 ba 87 ac aa 3d
       0.0075746775 0.02857226 -0.00095350307 0.08333688
000040 ba c9 59 3d 84 68 a2 bd 33 3a 6b 3d 9c bd 31 bc
       0.053170897 -0.07930091 0.05742855 -0.010848429
000050 cb de 12 bd a7 a6 e2 3c 31 0c 6c bc 1a 39 5f bc
       -0.035857003 0.027667357 -0.0144072035 -0.013624454
000060 10 57 57 bc 4a ad ff bc 97 e8 69 3c 5a d9 5c bd
       -0.013143316 -0.03121056 0.014276645 -0.05391822
000070 86 bc a2 bc 3b b6 9c bc 73 dc 6b 3c fd 30 3d 3c
       -0.019865286 -0.019129863 0.014395821 0.011547324

context_transformer_1/ffn_layer_1/output_dense/add/ReadVariableOp/resource f4 [32]
000000 bc bc c4 bd 6e 2c a1 3c 9c cc 16 3c 33 ae 71 3c
       -0.09606311 0.019674506 0.009204056 0.014751005
000010 83 31 ab bc 7d a7 b6 bc b7 f5 27 39 35 b1 56 bc
       -0.020897632 -0.022296662 0.00016017897 -0.013103773
000020 89 c1 8f 3c 97 0c b8 3c 9b 66 a2 3c 63 b5 66 3d
       0.01754834 0.02246694 0.019824317 0.056325328
000030 80 f6 40 3c 86 7c 34 3c 9b 43 b8 3a b7 a7 11 bc
       0.01177752 0.011016017 0.0014058234 -0.008890084
000040 be af ed bc 2b a3 68 bd ec 37 8f 3d 9e c8 d9 bb
       -0.029014464 -0.056796234 0.06993088 -0.00664623
000050 98 48 69 bd 15 47 b9 bc 26 39 ad 3c 4a 3f 31 bc
       -0.056953996 -0.022616902 0.021145415 -0.010818312
000060 e4 b1 91 bd a9 c8 22 bc 7d d7 7d 3c 89 f0 b4 3b
       -0.07114008 -0.009935536 0.015493271 0.005521838
000070 96 e4 c6 bb f7 18 0c bd 13 f9 15 bc 59 09 14 3d
       -0.00606973 -0.034203496 -0.009153622 0.036141727

context_transformer_1/ffn_layer_1/norm/mul/ReadVariableOp/resource f4 [32]
000000 cd 70 3a 3f db 69 5f 3f 55 27 43 3f b3 52 69 3f
       0.7282837 0.872709 0.7623189 0.91141814
000010 66 69 39 3f 6a 4c 4f 3f 8f d6 55 3f ac 83 72 3f
       0.7242645 0.80975974 0.83530515 0.94732165
000020 da 72 68 3f 8d 4f 6c 3f 2c 16 4a 3f 44 71 48 3f
       0.9080025 0.92308885 0.7894008 0.7829783
000030 51 88 6c 3f dc 44 64 3f 0e 20 44 3f 12 3b 5b 3f
       0.923955 0.8916757 0.7661141 0.8563701
000040 eb 63 5f 3f 86 72 5a 3f 81 07 4d 3f fa 74 64 3f
       0.8726184 0.85331 0.80089575 0.8924099
000050 8e 91 59 3f 02 3b 5c 3f 9f 0c 5b 3f e0 71 6e 3f
       0.84987724 0.8602754 0.85566133 0.9314251
000060 b2 c2 57 3f 26 fd 65 3f f5 37 5b 3f fe bf 56 3f
       0.84281456 0.898394 0.8563226 0.83886707
000070 13 0a 45 3f 0f 28 5f 3f 3c 0c 57 3f b7 1b 5d 3f
       0.769685 0.871705 0.84003043 0.86370414

context_transformer_1/ffn_layer_1/norm/add/ReadVariableOp/resource f4 [32]
000000 2d 6b b4 bd 1c af 87 3c 97 21 e8 3b 1f 40 75 3c
       -0.08809505 0.01656299 0.0070840823 0.014968901
000010 35 49 72 bc 9a 03 8d bc 08 b6 84 3b ec b9 6b bc
       -0.014787962 -0.017213631 0.00405002 -0.014387589
000020 e3 a3 97 3c f3 d8 c8 3c 7e 5b b8 3c 5b 40 4d 3d
       0.018510764 0.024517512 0.022504564 0.050110202
000030 af b1 1c 3c 0a d6 03 3c 4e 7f a2 3b 73 6e 58 bc
       0.009563847 0.008046636 0.0049590236 -0.013209927
000040 03 94 0b bd 32 e0 4c bd d7 70 7f 3d 74 d1 fc bb
       -0.0340767 -0.050018497 0.06236347 -0.0077153984
000050 29 c9 69 bd 22 0e b1 bc db c5 6b 3c c1 96 70 bc
       -0.057076607 -0.021613184 0.014390434 -0.01468438
000060 30 f7 8a bd 36 6a ea bb 9f 77 54 3c af ae 2a 3c
       -0.067854285 -0.0071537746 0.012967973 0.010417624
000070 8e 09 af bb be 8c 0f bd 01 bb ed bb ce 3e 02 3d
       -0.005341715 -0.03504633 -0.0072549586 0.031798176

context_transformer_1/ffn_layer_0/output_dense/add/ReadVariableOp/resource f4 [32]
000000 f7 19 2a bd 80 a2 79 bc ff 51 0c 3d 79 67 1c 3c
       -0.04152867 -0.015236497 0.034257885 0.009546154
000010 dc 3a c0 b8 6f d2 e2 bc de 1e e4 bb fb 41 aa bc
       -9.166237e-05 -0.027688233 -0.0069616875 -0.020783415
000020 57 18 54 3d 98 a5 0c 3d ad d2 69 3d f0 72 e2 3c
       0.051781025 0.03433761 0.05708568 0.027642697
000030 be 2c 73 bc d8 03 fc bb 2b cd 97 3c 67 57 db 3c
       -0.01484221 -0.007690888 0.018530449 0.026775075
000040 7c cd bc bc a9 a4 d9 bb 17 fd a1 bc 5f f1 e1 bc
       -0.023047201 -0.0066419435 -0.019774003 -0.027580915
000050 a4 e7 36 bd 25 8e 78 bd 2d 2e 1d bd d7 5f 36 bd
       -0.044654503 -0.060682435 -0.038374115 -0.044524994
000060 7a 44 7c bd 2f 38 10 3b dd d1 f6 bc 5a 70 17 bc
       -0.06158874 0.0022006144 -0.030129367 -0.009243095
000070 b1 67 a2 bc 67 ac 67 3a 27 3e 01 3d e0 39 a7 3c
       -0.019824835 0.00088376406 0.031553414 0.02041334

context_transformer_1/ffn_layer_0/norm/mul/ReadVariableOp/resource f4 [32]
000000 c6 0e 6d 3f 63 d2 7e 3f fd b1 5d 3f b3 e7 87 3f
       0.9260067 0.99539775 0.86599714 1.0617584
000010 5b df 4f 3f a9 02 73 3f cc 1c 74 3f b8 18 87 3f
       0.8120019 0.94925934 0.9535644 1.0554419
000020 9a a0 80 3f 59 36 85 3f 4e a0 74 3f df 18 6a 3f
       1.0049012 1.040721 0.95557106 0.914442
000030 d6 54 84 3f d0 c2 85 3f f3 90 69 3f e6 99 76 3f
       1.033839 1.0450077 0.912368 0.9632858
000040 17 78 79 3f 88 ae 6c 3f e6 4d 75 3f 4f 51 83 3f
       0.9744887 0.92453814 0.9582199 1.0259188
000050 c9 d8 77 3f d6 55 7b 3f 64 33 79 3f 48 50 81 3f
       0.9681516 0.9817785 0.9734404 1.0102625
000060 c3 c3 47 3f c4 b3 81 3f dd b5 81 3f f0 b3 70 3f
       0.78033084 1.0132985 1.0133625 0.9402456
000070 44 bb 5a 3f f8 c9 83 3f df bf 79 3f 91 45 81 3f
       0.85441995 1.0296011 0.975584 1.0099355

context_transformer_1/ffn_layer_0/norm/add/ReadVariableOp/resource f4 [32]
000000 e7 19 03 bd e6 9b 8b bc 7e 54 f8 3c 7b a1 04 3c
       -0.032007124 -0.017042112 0.030313727 0.008095141
000010 b5 3f c3 3b 53 52 b4 bc 39 60 9f bb 89 16 af bc
       0.005958522 -0.022011911 -0.0048637656 -0.02137305
000020 32 6a 53 3d 32 31 12 3d 4d ec 68 3d ac 69 ae 3c
       0.051614948 0.035691448 0.05686598 0.021290623
000030 94 f3 93 bc c2 43 16 bc 11 54 a5 3c d1 3b ae 3c
       -0.018060483 -0.009171428 0.020181688 0.021268757
000040 e1 9a cd bc 9d 63 91 b8 4b 9a cf bc 18 ef dd bc
       -0.025098266 -6.932693e-05 -0.025342127 -0.027091548
000050 f4 94 32 bd a4 8c 71 bd b9 e8 2d bd 36 80 39 bd
       -0.043599084 -0.058972016 -0.04245827 -0.045288287
000060 58 85 62 bd 22 c9 92 3b 9a bb 01 bd 4b ef 0b bc
       -0.055302948 0.0044795433 -0.03167305 -0.008540939
000070 c8 1a 91 bc dd b4 17 b9 9f 6c 05 3d 09 74 87 3c
       -0.017712966 -0.00014467859 0.032574292 0.016534822

context_transformer_1/bottleneck_output/norm/mul/ReadVariableOp/resource f4 [32]
000000 70 db 27 3f ae 36 4e 3f de 06 84 3f ea 49 2a 3f
       0.6556921 0.80552185 1.0314596 0.66519034
000010 95 ff 42 3f fc 67 40 3f df c4 48 3f 85 c1 34 3f
       0.7617124 0.7515867 0.784254 0.7060779
000020 2f 73 3d 3f 58 a9 67 3f 1e 7a 5c 3f de 4f 83 3f
       0.7400388 0.90492773 0.86123836 1.0258749
000030 e7 90 33 3f 47 12 61 3f 76 b8 35 3f e4 c3 17 3f
       0.7014298 0.87918514 0.7098459 0.5928328
000040 14 2b 1e 3f 9e bf 38 3f 47 d6 47 3f 14 97 7f 3f
       0.6178448 0.72167385 0.78061336 0.998399
000050 fb 42 82 3f 99 23 32 3f 82 29 57 3f 51 6e 76 3f
       1.0176691 0.6958557 0.8404771 0.9626208
000060 a7 4b 43 3f 06 81 49 3f 0a 10 5e 3f 2d c7 2c 3f
       0.7628731 0.787125 0.86743224 0.6749142
000070 58 39 5b 3f d5 ca 53 3f a9 16 5d 3f c1 bf 39 3f
       0.85634375 0.8273137 0.863627 0.7255822

context_transformer_1/bottleneck_output/norm/add/ReadVariableOp/resource f4 [32]
000000 e9 7c 35 3d 25 ea 15 3c c4 93 bf 3d 51 71 d0 3b
       0.044308577 0.009150063 0.09354356 0.0063611646
000010 3e 88 7d bd 9c 14 52 3d 1c 95 52 3d 3f c3 d4 bc
       -0.06189751 0.051289186 0.051411733 -0.025972007
000020 17 39 90 3d 0b 1e 90 bd f1 c9 6c 3e 21 e5 a6 bd
       0.07042139 -0.0703698 0.2312391 -0.081491716
000030 36 aa 46 3c e6 06 e4 bd 52 a7 c8 3d 77 fe 4a bd
       0.012125542 -0.11134128 0.09797539 -0.049559083
000040 81 66 06 bd 56 11 59 3b 44 1b 26 3e 7f 05 f2 3d
       -0.0328126 0.0033121905 0.16221339 0.118174545
000050 be aa 65 bc 58 f7 62 3d c8 e7 8d 3c e9 08 10 3e
       -0.014017759 0.055411667 0.017322436 0.14065899
000060 0d 65 ae bc 77 5e ae 3d 0e c0 2a be a9 17 2e bd
       -0.02128842 0.085141115 -0.16674826 -0.042503033
000070 cc 79 61 3c e5 a1 6c bd b6 f6 44 bd 90 eb 43 bd
       0.013761949 -0.057771582 -0.048086844 -0.04783207

context_transformer_1/bottleneck_input/norm/add f4 [32]
000000 f2 ca 2b 3e 5a ca 8a 3c 18 38 14 bd 66 78 2b 3c
       0.16776636 0.016942192 -0.036186308 0.010465717
000010 d2 0e 60 3e 78 aa 53 3e 75 df 4e 3d e2 9d cc 3c
       0.21880654 0.20670497 0.050506074 0.024977628
000020 22 d1 d9 3c 30 dd 14 3d 44 46 7d 3d 65 84 cc bd
       0.02658898 0.036343753 0.06183459 -0.0998619
000030 c0 97 e1 3a 6e b2 df bc 32 24 08 3e e2 b5 4f 3d
       0.0017211363 -0.027306762 0.13295057 0.050710566
000040 7d c2 cb bd b1 c6 ad 3d 26 a0 87 bd 5e 42 84 bc
       -0.09949205 0.08485163 -0.06622343 -0.016144928
000050 d5 5e 32 bd c8 ae e0 bb 57 8c 2c bd e9 5d 9f bd
       -0.04354747 -0.006856773 -0.042126026 -0.07781584
000060 82 d6 a4 3d dc 77 cd bc aa 42 04 bd c0 ea 37 3a
       0.080487266 -0.025081567 -0.03229014 0.00070158765
000070 41 a0 d7 3c 86 1c 9a bd 15 03 19 3e f0 6c 6b bd
       0.026321532 -0.07524972 0.14942582 -0.057476938

context_transformer_1/attention/attention_output/add/ReadVariableOp/resource f4 [32]
000000 e8 88 8d 3d c2 2a af 3b df 77 81 bc ca 75 09 3c
       0.069108784 0.0053456733 -0.01580423 0.0083898995
000010 1a e3 43 3d d8 b8 2d 3d 74 73 bb 3c 76 48 06 3b
       0.047824003 0.04241261 0.0228822 0.0020489967
000020 2a 75 03 3d b5 74 1a 3c 2c e5 fe 3c d6 a6 68 bd
       0.03209416 0.009427239 0.031115137 -0.056799732
000030 a2 e4 10 bc b9 4d 55 bc e1 89 51 3d 39 90 d9 3b
       -0.008843573 -0.013019019 0.051156882 0.006639507
000040 67 ea d9 bc e5 cd 22 3d 11 d3 46 bd ae dc 31 3c
       -0.02660103 0.039747138 -0.048541132 0.010855837
000050 bc 0b 15 bc b8 b2 14 3b ed e0 57 bd 11 f0 ef bc
       -0.009097036 0.0022689532 -0.05270474 -0.029289277
000060 0c 59 c0 3c 6b 40 71 bb cc 71 10 bd 66 69 c1 3b
       0.02347996 -0.0036812078 -0.035264775 0.005902457
000070 4f 9b f3 3c 7c b2 db 3b 70 96 39 3d 4b 9e 48 bc
       0.029737143 0.0067046266 0.045309484 -0.012244771

context_transformer_1/attention/norm/mul/ReadVariableOp/resource f4 [32]
000000 89 2d 82 3f 9c 61 8b 3f 87 ea 8c 3f 0a b7 9c 3f
       1.0170146 1.0889163 1.1009072 1.2243359
000010 ee 0c 7a 3f 82 98 87 3f e6 4e 85 3f 79 a6 9b 3f
       0.9767598 1.0593417 1.0414703 1.2160178
000020 79 e0 8c 3f 8c 44 95 3f ff 4d 8f 3f af 82 8a 3f
       1.1006004 1.1661544 1.1195678 1.0821131
000030 1e 62 96 3f 35 11 8f 3f f0 ba 7e 3f 6a 92 87 3f
       1.1748693 1.1177126 0.99503994 1.0591557
000040 45 26 8c 3f 49 6d 88 3f 7b 78 86 3f 05 46 99 3f
       1.0949179 1.0658351 1.0505518 1.1974493
000050 09 df 97 3f fd 9c 96 3f 07 ab 8a 3f 9b b4 86 3f
       1.186494 1.1766659 1.0833443 1.0523866
000060 15 bb 7f 3f 04 9e 89 3f 43 b8 89 3f 99 1b 8d 3f
       0.9989484 1.0751348 1.0759357 1.1024047
000070 e7 9a 8b 3f ae c4 91 3f 4a 70 8f 3f 56 65 87 3f
       1.0906647 1.1388147 1.1206143 1.05778

context_transformer_1/attention/norm/add/ReadVariableOp/resource f4 [32]
000000 78 7a 99 3d 75 47 64 3b 9d 49 a2 bc f8 c8 bb 3b
       0.07494062 0.003483263 -0.019810492 0.0057307445
000010 ef 76 54 3d 26 9f 3b 3d 2b 9e b4 3c b9 dc 85 3a
       0.051871236 0.045806073 0.022048077 0.0010212875
000020 ae 07 04 3d 3e b6 2e 3c 18 8c fa 3c a8 f6 79 bd
       0.032233886 0.010663567 0.03058438 -0.061026245
000030 a2 b8 2e bc 3c c5 48 bc a2 1a 51 3d 8d fd 17 3b
       -0.010664137 -0.012254056 0.05105079 0.00231919
000040 ab 2f d3 bc f2 83 32 3d 49 ba 51 bd 59 6c 42 3c
       -0.025779566 0.043582864 -0.051203046 0.011866652
000050 9d 10 11 bc 1e a4 9d 3b 73 65 5b bd 49 84 e6 bc
       -0.008854059 0.004810824 -0.053563546 -0.02813925
000060 a7 bd e7 3c 19 16 3c bb 61 0e 0f bd 79 e0 a3 3b
       0.028288675 -0.0028699695 -0.034925822 0.0050011245
000070 67 b1 f8 3c 90 d7 be 3b e5 61 3f 3d 10 2c 63 bc
       0.03035803 0.005824037 0.04672422 -0.013865486

context_transformer_0/ffn_layer_3/output_dense/add/ReadVariableOp/resource f4 [32]
000000 03 a9 04 3d 96 47 19 3c cb 21 0f bd 26 1e 95 3c
       0.032387745 0.009355446 -0.034944337 0.018202852
000010 8a fd 16 3d 38 9d a0 3c cf a1 9c 3b 68 a7 32 3a
       0.036862887 0.019606218 0.0047800313 0.00068151066
000020 e5 ba 94 3c 7d 5b e3 3c 77 a6 a1 bc 5b 8c 14 3d
       0.018155525 0.027753586 -0.019732697 0.036266666
000030 98 3a e7 bc ce 2e 0b bc 7f e7 0d bd 17 e6 57 bc
       -0.028226182 -0.008495046 -0.0346446 -0.013177416
000040 01 e7 87 bc ef d6 96 39 b5 ea e7 bb 9e fc 97 bc
       -0.016589643 0.00028770367 -0.00707754 -0.018553074
000050 1b e0 02 3d a2 88 35 bd 86 5f 51 bc 7a 62 85 3c
       0.031952005 -0.044319756 -0.012779122 0.016282309
000060 96 e3 96 bb 50 be cd bc 71 33 bf 3b 62 4c 8b bb
       -0.004604767 -0.025115162 0.0058349897 -0.004251049
000070 b1 f9 9c 3c be 96 f7 3b 43 71 49 3d 59 d8 4a bc
       0.01916203 0.0075558117 0.04918028 -0.012380683

context_transformer_0/ffn_layer_2/output_dense/add/ReadVariableOp/resource f4 [32]
000000 73 a7 71 3c 96 aa 9f 3d 71 74 cb 3c 90 2c 7f bc
       0.014749396 0.077962086 0.024835797 -0.015574589
000010 ef c1 1c 3c 10 2f 72 3b f5 3d 07 3d fa f8 62 3d
       0.009567722 0.003695432 0.03301807 0.055413224
000020 29 3a 2d 3d ea a8 29 3d ac f7 75 bd 15 f1 b5 bc
       0.042291794 0.041420855 -0.06005065 -0.022209683
000030 4b bf 53 3c 80 1e 16 ba a2 4c b4 3a 87 a6 d2 bc
       0.012924026 -0.0005726591 0.0013755749 -0.025714172
000040 18 a9 9e bc f1 e0 0f 3c d7 16 0a 3c eb cf 11 bd
       -0.01936774 0.008781658 0.008428297 -0.035598677
000050 26 3b 7a 3d 27 df 98 3c 9f 59 82 bb 90 66 60 3d
       0.061091565 0.018661095 -0.003977969 0.05478531
000060 4d f4 01 3b 82 27 e3 bc 64 e5 ad b8 0c bb 93 3b
       0.0019829453 -0.0277288 -8.29201e-05 0.0045083817
000070 40 e0 82 3c 1f 42 cc bb 1a 5f 97 3d 93 5f 6b bd
       0.015976071 -0.006233468 0.07391186 -0.057464194

context_transformer_0/ffn_layer_2/norm/mul/ReadVariableOp/resource f4 [32]
000000 46 52 2b 3f ef 47 21 3f 0a 6c 3b 3f 5a 7b 50 3f
       0.66922414 0.63000387 0.7321173 0.8143822
000010 cd b9 1f 3f 39 2d 30 3f 60 1e 08 3f fc eb 32 3f
       0.62392884 0.68819004 0.5317135 0.69891334
000020 80 a3 3e 3f e5 6d 57 3f 67 46 20 3f 09 0b 1c 3f
       0.7446823 0.8415206 0.62607425 0.6095434
000030 ee 93 30 3f d8 d9 37 3f e4 e4 1a 3f dc 81 27 3f
       0.6897572 0.7181678 0.6050551 0.65432525
000040 cb 3f 3d 3f b4 63 60 3f 10 55 51 3f 73 c6 2b 3f
       0.73925465 0.87652135 0.8177042 0.67099684
000050 c1 5f 2c 3f 67 29 36 3f 03 a9 3b 3f b2 e2 00 3f
       0.6733361 0.71156925 0.73304766 0.5034591
000060 83 ff 2c 3f 3e 07 5a 3f d5 a3 2b 3f d0 8b 4f 3f
       0.6757738 0.851673 0.6704686 0.8107271
000070 46 6c 21 3f f2 5f 2a 3f 2f e5 32 3f 28 7a 16 3f
       0.6305584 0.6655265 0.69880956 0.58780146

context_transformer_0/ffn_layer_2/norm/add/ReadVariableOp/resource f4 [32]
000000 64 ae 1c 3c 3d ba 93 3d 2f 30 ca 3c 85 46 7b bc
       0.009563062 0.072132565 0.024681179 -0.015336637
000010 1e dd 3c 3b 2f 89 50 bb ca 41 d3 3c 3c 6b 5e 3d
       0.002881832 -0.003182005 0.025788207 0.054301485
000020 6c 91 22 3d 11 da 1f 3d 8c 3f 63 bd 8b 66 c2 bc
       0.039689466 0.039026324 -0.055480525 -0.023730537
000030 62 de 20 3c 65 92 d2 ba ae 6d c3 3b 82 0d d0 bc
       0.009818645 -0.0016065357 0.0059640026 -0.025397066
000040 c4 7d 8e bc 21 3d 05 3c 99 5c 2f 3c ff cd ff bc
       -0.017393954 0.00813225 0.010703229 -0.031226156
000050 75 cb 60 3d 6d 03 a2 3c 5f 53 f0 bb 2a 75 49 3d
       0.05488153 0.019777024 -0.0073341574 0.049184002
000060 9c 35 2c 3b 0b 80 ce bc b7 89 ea ba 61 cc 6d 3b
       0.002627707 -0.02520754 -0.0017893825 0.003628515
000070 c4 49 20 3c 2e a5 48 bb f1 d1 86 3d ba 05 53 bd
       0.009783212 -0.0030616033 0.06583012 -0.051519133

context_transformer_0/ffn_layer_1/output_dense/add/ReadVariableOp/resource f4 [32]
000000 15 35 55 3d d5 e0 ef 3c e1 12 80 3b cf dd be bc
       0.052052576 0.029282013 0.0039085005 -0.023299126
000010 c2 be 8f bc d3 c6 4b bd 2a c4 45 3d b9 c3 e6 3c
       -0.017547015 -0.04975016 0.04828278 0.0281695
000020 03 cf 4e 3c a6 22 83 3d e2 e3 61 bd 9f b8 2e bd
       0.012622598 0.06403093 -0.055148967 -0.042656537
000030 d7 5b 63 bd 4e aa 26 bc 3b 22 23 bd ed 47 44 bd
       -0.055507507 -0.01017244 -0.039827567 -0.047920156
000040 47 41 80 3c ea 1e 51 3c 07 4a 8e bb db 90 63 3c
       0.015656127 0.012763718 -0.004342321 0.013889517
000050 48 63 59 bc 7e 2c 45 ba 1a cd 09 3c 14 af 08 bd
       -0.013268299 -0.00075215835 0.008410716 -0.033370093
000060 e0 d3 67 bb f2 9d ff 3a 46 40 87 bc bd 69 43 bd
       -0.003537409 0.0019502027 -0.01651014 -0.04770826
000070 62 b6 72 3c 11 96 fc 3c 3b 36 23 3d c1 69 27 bc
       0.014813991 0.030833276 0.03984664 -0.010218085

context_transformer_0/ffn_layer_1/norm/mul/ReadVariableOp/resource f4 [32]
000000 ef 6e 5c 3f 4d 26 4c 3f b7 cd 62 3f ce 7d 6e 3f
       0.8610677 0.7974594 0.88595146 0.9316071
000010 58 ca 40 3f 5f 34 49 3f 68 57 49 3f ee 50 59 3f
       0.7530875 0.78595537 0.78648996 0.84889114
000020 3c 48 65 3f 30 a5 7b 3f 46 36 53 3f 1c 40 44 3f
       0.89563346 0.9829893 0.8250469 0.76660323
000030 99 ee 52 3f 7f 81 6d 3f 70 1b 4a 3f 2b 72 6b 3f
       0.8239532 0.9277572 0.78948116 0.9197108
000040 ab f3 64 3f b6 a7 6d 3f 2c e4 6e 3f e1 05 52 3f
       0.8943431 0.9283403 0.9331691 0.8204022
000050 4b 8f 3d 3f 92 09 67 3f 79 87 76 3f bc 89 53 3f
       0.7404677 0.9024898 0.96300465 0.8263204
000060 27 7d 5f 3f 6d 6b 6a 3f 28 41 71 3f 34 52 71 3f
       0.8730034 0.9157017 0.94240046 0.94266057
000070 ed d7 5b 3f 63 f4 5f 3f 33 51 56 3f 99 95 5b 3f
       0.8587635 0.8748228 0.8371765 0.8577514

context_transformer_0/ffn_layer_1/norm/add/ReadVariableOp/resource f4 [32]
000000 37 8c 34 3d 74 f5 ac 3c ab 3c 46 39 83 c9 ab bc
       0.04407903 0.021113135 0.00018905352 -0.020970112
000010 67 14 96 bc 87 b9 5c bd 13 38 33 3d d4 c9 c9 3c
       -0.018320275 -0.05388787 0.04375465 0.024632372
000020 8b 55 25 3c 77 f3 73 3d 56 15 4c bd ca a5 1c bd
       0.010091196 0.059558358 -0.049825035 -0.038244046
000030 79 d7 5c bd 1a 00 33 bc 62 f1 11 bd 4f e1 38 bd
       -0.05391643 -0.010925317 -0.03563059 -0.045136746
000040 d9 f5 82 3c b9 be 49 3c f8 b0 90 39 e8 86 89 3c
       0.01598637 0.012313538 0.00027597672 0.016787961
000050 d4 30 a6 bc 2d 90 8f bb a0 fe e6 3b 07 37 10 bd
       -0.020286955 -0.0043812008 0.0070493966 -0.03520873
000060 97 a9 0c ba 53 4c 88 3b f7 64 78 bc 95 96 3d bd
       -0.0005365847 0.004159489 -0.015160791 -0.046286184
000070 0b f1 44 3c 63 3c 12 3d 79 7e 02 3d 3e 3c 7e bb
       0.01202036 0.03570212 0.031858895 -0.0038793231
